/lustre/scratch/grp/fslg_internn/env/internn/bin/python
torch.Size([1000, 1, 28, 28])
max label 44
<class 'models_avg_pool.V1'>
Parameters 1117871
<bound method V1.two_conv_pool of V1(
  (l1): Sequential(
    (0): Conv2d(1, 64, kernel_size=(3, 3), stride=(1, 1), padding=(1, 1))
    (1): BatchNorm2d(64, eps=1e-05, momentum=0.1, affine=True, track_running_stats=True)
    (2): AvgPool2d(kernel_size=2, stride=2, padding=0)
  )
  (l2): Sequential(
    (0): Conv2d(64, 128, kernel_size=(3, 3), stride=(1, 1), padding=(1, 1))
    (1): BatchNorm2d(128, eps=1e-05, momentum=0.1, affine=True, track_running_stats=True)
    (2): AvgPool2d(kernel_size=2, stride=2, padding=0)
  )
  (l3): Sequential(
    (0): Conv2d(128, 256, kernel_size=(3, 3), stride=(1, 1), padding=(1, 1))
    (1): BatchNorm2d(256, eps=1e-05, momentum=0.1, affine=True, track_running_stats=True)
    (2): AvgPool2d(kernel_size=2, stride=2, padding=0)
  )
  (l4): Sequential(
    (0): Conv2d(256, 256, kernel_size=(3, 3), stride=(1, 1), padding=(1, 1))
    (1): BatchNorm2d(256, eps=1e-05, momentum=0.1, affine=True, track_running_stats=True)
    (2): AvgPool2d(kernel_size=2, stride=2, padding=0)
  )
  (classifier): Sequential(
    (0): Dropout(p=0.5, inplace=False)
    (1): Linear(in_features=256, out_features=512, bias=True)
    (2): BatchNorm1d(512, eps=1e-05, momentum=0.1, affine=True, track_running_stats=True)
    (3): Dropout(p=0.5, inplace=False)
    (4): Linear(in_features=512, out_features=47, bias=True)
  )
)> <bound method V1.three_conv_pool of V1(
  (l1): Sequential(
    (0): Conv2d(1, 64, kernel_size=(3, 3), stride=(1, 1), padding=(1, 1))
    (1): BatchNorm2d(64, eps=1e-05, momentum=0.1, affine=True, track_running_stats=True)
    (2): AvgPool2d(kernel_size=2, stride=2, padding=0)
  )
  (l2): Sequential(
    (0): Conv2d(64, 128, kernel_size=(3, 3), stride=(1, 1), padding=(1, 1))
    (1): BatchNorm2d(128, eps=1e-05, momentum=0.1, affine=True, track_running_stats=True)
    (2): AvgPool2d(kernel_size=2, stride=2, padding=0)
  )
  (l3): Sequential(
    (0): Conv2d(128, 256, kernel_size=(3, 3), stride=(1, 1), padding=(1, 1))
    (1): BatchNorm2d(256, eps=1e-05, momentum=0.1, affine=True, track_running_stats=True)
    (2): AvgPool2d(kernel_size=2, stride=2, padding=0)
  )
  (l4): Sequential(
    (0): Conv2d(256, 256, kernel_size=(3, 3), stride=(1, 1), padding=(1, 1))
    (1): BatchNorm2d(256, eps=1e-05, momentum=0.1, affine=True, track_running_stats=True)
    (2): AvgPool2d(kernel_size=2, stride=2, padding=0)
  )
  (classifier): Sequential(
    (0): Dropout(p=0.5, inplace=False)
    (1): Linear(in_features=256, out_features=512, bias=True)
    (2): BatchNorm1d(512, eps=1e-05, momentum=0.1, affine=True, track_running_stats=True)
    (3): Dropout(p=0.5, inplace=False)
    (4): Linear(in_features=512, out_features=47, bias=True)
  )
)>
Ordinary Epoch [1/100], Step [500/1128] Loss: 2.6742
Test Accuracy of NN: 54.42553191489362 % (improvement)
Ordinary Epoch [2/100], Step [500/1128] Loss: 2.2458
Test Accuracy of NN: 56.22872340425532 % (improvement)
Ordinary Epoch [3/100], Step [500/1128] Loss: 2.4623
Test Accuracy of NN: 56.66489361702128 % (improvement)
Ordinary Epoch [4/100], Step [500/1128] Loss: 2.0326
…
